converted_model.tflite (tflite, 22384 bytes, 6 tensors)

sequential/dense/BiasAdd/ReadVariableOp f4 [64]
-2.0350745 -0.09890283 -1.9891663 -1.1210977 -1.0674412 -0.07468709 2.9671068 -0.035105944
0.33660942 -0.4095764 -1.0321764 0.30352575 -0.15051028 1.532655 -0.8332795 1.0993431
0.18527503 -0.70960915 -1.3883955 0.26038465 -0.50512975 -0.2574084 -0.28460255 0.7604959
-0.30167842 -0.58682984 0.5539311 -0.048051726 -0.09310627 1.4568872 0.6270885 -0.2719935
-0.19627014 -0.90246105 0.21740015 1.0462775 -1.3670402 -0.7703322 1.7826838 0.5661252
-0.19780163 -2.2137191 -0.28741673 -0.8399538 -0.19665322 -2.340837 0.31914783 2.3102946
-0.86294204 0.036499668 -0.05661205 -0.8203027 1.118906 -0.09899929 0.017302888 -0.5427785
0.33613148 -1.5516585 -0.33681437 0.8350164 0.6043687 -0.07464933 -0.6463773 -1.098891
00000000: a93e 02c0 918d cabd 009d febf 2180 8fbf
00000010: eaa1 88bf 8cf5 98bd 14e5 3d40 40cb 0fbd
00000020: 1258 ac3e ffb3 d1be 5b1e 84bf ba67 9b3e
00000030: 5e1f 1abe 0a2e c43f ce51 55bf 46b7 8c3f
00000040: bdb8 3d3e f2a8 35bf f2b6 b1bf 2351 853e
00000050: 2f50 01bf 09cb 83be 6db7 91be dcaf 423f
00000060: 9875 9abe 7b3a 16bf 6ece 0d3f e3d1 44bd
00000070: 80ae bebd 487b ba3f df88 203f bb42 8bbe
00000080: 0afb 48be b007 67bf 259e 5e3e 6cec 853f
00000090: 2cfb aebf 7e34 45bf fc2e e43f 95ed 103f
000000a0: 838c 4abe 93ad 0dc0 4928 93be 3607 57bf
000000b0: 765f 49be 46d0 15c0 5867 a33e dedb 1340
000000c0: c5e9 5cbf ad80 153d 09e2 67bd 5cff 51bf
000000d0: 5038 8f3f 24c0 cabd c9be 8d3c 88f3 0abf
000000e0: 6d19 ac3e bf9c c6bf ef72 acbe a3c3 553f
000000f0: e8b7 1a3f bfe1 98bd fc78 25bf 76a8 8cbf

sequential/dense_2/BiasAdd/ReadVariableOp f4 [6]
-0.60902184 -1.4665378 1.0967253 -0.48399258 0.373809 1.1807891
00000000: dbe8 1bbf 83b7 bbbf 7f61 8c3f e0cd f7be
00000010: e563 bf3e 1924 973f

sequential/dense_1/BiasAdd/ReadVariableOp f4 [64]
0.7855839 0.22681025 -1.3243116 1.743162 0.6674369 0.1714217 -2.7126045 0.29997736
1.1055071 -0.05567569 0.28031313 1.7624898 1.0434082 0.27670208 0.5368457 0.10020957
0.3507552 0.24480711 0.47149578 -0.0017456366 1.0677094 -0.067580804 1.331724 0.62167615
-1.0811415 2.2978845 1.2573816 -0.0901178 -0.272933 -2.721813 0.79533285 -4.423055
0.4789293 -1.5911231 -0.3027894 0.15714763 1.7689947 1.5422399 0.88251925 0.5248522
-0.7253347 0.61278814 -0.061113287 -0.24721074 0.017664064 0.5091505 -0.32949355 0.218054
-2.640678 -0.08123482 0.8426869 -1.1096183 -1.9925374 0.4732151 -0.13182728 -0.15572213
1.1864063 0.5642126 0.07547382 -0.8777592 0.09315161 0.49390242 0.07530214 0.46755853
00000000: 071c 493f f240 683e 0b83 a9bf ef1f df3f
00000010: 25dd 2a3f 2c89 2f3e 509b 2dc0 a296 993e
00000020: 4281 8d3f 310c 64bd 3485 8f3e 4499 e13f
00000030: 668e 853f e5ab 8d3e b86e 093f ad3a cd3d
00000040: 3096 b33e b7ae 7a3e e567 f13e d8cd e4ba
00000050: b4aa 883f ce67 8abd ef75 aa3f 2b26 1f3f
00000060: d862 8abf 8a10 1340 e1f1 a03f ae8f b8bd
00000070: e0bd 8bbe 2f32 2ec0 ef9a 4b3f ab89 8dc0
00000080: 3936 f53e eca9 cbbf 3607 9bbe 4feb 203e
00000090: 6b6e e23f 1e68 c53f c8ec 613f b75c 063f
000000a0: 89af 39bf afdf 1c3f ed51 7abd d024 7dbe
000000b0: 3ab4 903c b057 023f 61b3 a8be 8c49 5f3e
000000c0: de00 29c0 715e a6bd 54ba 573f f907 8ebf
000000d0: 770b ffbf 4049 f23e bbfd 06be 9f75 1fbe
000000e0: 29dc 973f 3d70 103f 0592 9a3d d4b4 60bf
000000f0: 45c6 be3d c7e0 fc3e 0238 9a3d d563 ef3e

sequential/dense/MatMul f4 [64, 6]
0.1860879 1.1804314 -2.570533 0.009324986 -0.006070269 0.011411343 -1.2652074 1.9109672
-0.96778315 0.005684864 0.01808865 0.029527782 -1.983858 0.46500412 -3.281253 -0.0026226223
0.002777954 0.0016096048 -0.1492742 -0.22714601 -1.0096883 0.12733345 0.15371913 0.049049985
-2.3664455 -0.31045866 2.255642 -0.026185267 0.080698974 -0.16077323 -0.12934864 -1.1405196
-1.7732631 0.041910462 -0.0075819734 0.011261772 0.9523685 -2.7709525 1.4925042 -0.006039915
-0.00054039084 -8.672361e-05 0.8099234 0.2695833 0.7047029 -0.17549612 -0.13125086 0.0058013215
2.3732874 0.43989134 -0.9078323 -0.0052021146 -0.024936581 0.024700416 0.14822966 -0.43782943
-0.98671705 -0.027257599 -0.13043332 0.02644941 0.9791159 0.3495753 0.25151363 0.010220804
-0.1541976 0.07638188 -3.180889 0.52776134 2.3075302 -0.007674881 -0.005226254 0.004746622
-0.06947065 -0.20109758 -0.63831776 -0.10746602 0.03605439 0.07451869 3.1481256 -4.5178924
-0.9004812 -0.003821689 -0.0019779287 0.008175999 1.1299529 0.9055425 2.6711907 -0.22090557
-0.1288812 -0.023433177 3.493342 1.7207495 0.6813506 -0.001425744 -0.019321831 -0.0004390756
0.086637564 1.5199219 2.0040271 -0.059605908 0.07917202 0.07684998 0.37643653 -0.5682058
-2.6414754 -0.007682322 -0.03408529 -0.0075274906 -1.2398074 -0.4903746 -2.01418 -0.031141449
0.08680321 0.03460124 1.5690559 -0.80610704 -1.1968257 -0.07632974 -0.014269277 -0.039906695
1.0503873 -0.9353771 -1.868357 -0.014325028 0.012154976 -0.04213494 0.102916904 -0.007975495
-0.06637901 -0.1125392 0.028205296 -0.075585335 0.299177 -1.2413318 0.36664438 -0.010620479
0.17256919 -0.053489532 -0.87661624 -2.7436836 -1.5710332 -0.011773858 0.013079785 0.0069749593
1.8022786 1.9871267 -0.6371808 0.00060063694 -0.025717488 0.0024627654 -0.44104034 -1.1503162
0.7321537 0.08835358 -0.12809826 0.13906287 1.7063085 1.0383632 0.8925306 -0.05663741
-0.07484757 -0.14085881 -0.74958485 2.1030817 0.2985619 -0.05743634 -0.030620052 0.018971754
0.6490827 1.1406336 3.3698344 -0.17366545 -0.038564853 0.17634441 -1.7862762 0.23269261
2.8190227 0.0004448929 -0.015941361 -0.022782668 1.1395707 -0.5603113 3.2745333 0.09187011
-0.14285223 -0.09405683 -1.5786022 -1.6099683 -1.8880987 0.07647988 0.03573111 -0.019637503
-1.9659556 -1.4520006 -0.94782084 -0.05265978 -0.09931175 0.06959311 0.41317266 0.94919425
1.3276333 0.11796086 0.105557986 -0.10246601 -0.8719031 -0.7729509 -0.35289788 0.13792633
-0.14569576 -0.15511939 3.8729503 -0.40382764 -0.43687558 0.036050387 0.025337689 -0.0037162208
1.3970476 0.883056 -1.5094414 -0.0054512997 0.0119557 0.018907107 -0.6691508 0.9123412
0.2421276 -0.14128622 0.04340104 0.059669062 -0.1901205 -0.5258657 1.4867897 0.012569184
0.032192953 -0.0019677465 0.14135396 0.22019874 0.78738445 0.053960197 -0.028363269 0.015710587
-0.14968845 -1.4915864 -0.51291984 -0.09497337 -0.1269791 0.14026621 0.52218264 -2.9714363
0.8545903 0.011247893 -0.28376862 0.048524477 -0.5437963 0.46139655 1.0227524 0.10360558
00000000: d48d 3e3e 6018 973f 9d83 24c0 d3c7 183c
00000010: 1be9 c6bb a4f6 3a3c 51f2 a1bf 939a f43f
00000020: a3c0 77bf 1848 ba3b a62e 943c 3fe4 f13c
00000030: 0fef fdbf 0515 ee3e 0d00 52c0 4de0 2bbb
00000040: 560e 363b 60f9 d23a 56db 18be f798 68be
00000050: 773d 81bf b363 023e 8c68 1d3e a3e8 483d
00000060: d873 17c0 70f4 9ebe 705c 1040 7c82 d6bc
00000070: 8145 a53d bda1 24be f873 04be 8cfc 91bf
00000080: 49fa e2bf 4eaa 2b3d 3472 f8bb 4c83 383c
00000090: 6cce 733f 4957 31c0 610a bf3f 7bea c5bb
000000a0: 04a9 0dba 62df b5b8 2457 4f3f d306 8a3e
000000b0: 6967 343f 41b5 33be a066 06be 0319 be3b
000000c0: f1e3 1740 7039 e13e b367 68bf 8076 aabb
000000d0: cd47 ccbc 8758 ca3c 84c9 173e 2e2b e0be
000000e0: 7d99 7cbf 544b dfbc 5090 05be 6fac d83c
000000f0: 57a7 7a3f 89fb b23e 65c6 803e 2975 273c
00000100: fae5 1dbe 1a6e 9c3d af93 4bc0 5e1b 073f
00000110: 93ae 1340 917d fbbb ff40 abbb 8d89 9b3b
00000120: a146 8ebd 86ec 4dbe cb68 23bf 2517 dcbd
00000130: c5ad 133d 419d 983d e47a 4940 9392 90c0
00000140: f085 66bf 4d75 7abb 23a0 01bb a0f4 053c
00000150: 4ca2 903f a2d1 673f caf4 2a40 1235 62be
00000160: 6ff9 03be eff6 bfbc ea92 5f40 8541 dc3f
00000170: fe6c 2e3f 08e0 baba d148 9ebc bb33 e6b9
00000180: 096f b13d cd8c c23f fb41 0040 5325 74bd
00000190: f124 a23d 8663 9d3d 4abc c03e ef75 11bf
000001a0: ef0d 29c0 fdbb fbbb 049d 0bbd 2ba9 f6bb
000001b0: 02b2 9ebf 6112 fbbe 53e8 00c0 5a1c ffbc
000001c0: e2c5 b13d 08ba 0d3d d3d6 c83f 085d 4ebf
000001d0: 9631 99bf c452 9cbd b0c9 69bc 3475 23bd
000001e0: 1773 863f e074 6fbf 5226 efbf 86b3 6abc
000001f0: aa25 473c b095 2cbd 19c6 d23d a7ab 02bc
00000200: b8f1 87bd f47a e6bd cb0e e73c 7ccc 9abd
00000210: ba2d 993e f6e3 9ebf d0b8 bb3e 8401 2ebc
00000220: fab5 303e d717 5bbd ec69 60bf 8398 2fc0
00000230: 9e17 c9bf 24e7 40bc 984c 563c 338e e43b
00000240: 11b1 e63f 2b5a fe3f 481e 23bf 1074 1d3a
00000250: 7bad d2bc 5966 213b 0ad0 e1be 903d 93bf
00000260: 6d6e 3b3f b9f2 b43d 312c 03be 7f66 0e3e
00000270: 5168 da3f 16e9 843f e37c 643f a1fc 67bd
00000280: af49 99bd 4b3d 10be cbe4 3fbf e498 0640
00000290: 1bdd 983e 5e42 6bbd e7d6 fabc a76a 9b3c
000002a0: 492a 263f 4800 923f 5eab 5740 5bd5 31be
000002b0: 2ef6 1dbd a193 343e b3a4 e4bf f946 6e3e
000002c0: de6a 3440 8440 e939 7597 82bc b8a2 babc
000002d0: 74dd 913f 9070 0fbf f491 5140 6526 bc3d
000002e0: db47 12be dea0 c0bd a30f cabf 7113 cebf
000002f0: 38ad f1bf 7ca1 9c3d c95a 123d d4de a0bc
00000300: 6fa4 fbbf 28db b9bf 63a4 72bf c8b1 57bd
00000310: f563 cbbd d586 8e3d 5e8b d33e 65fe 723f
00000320: e3ef a93f 7795 f13d c92e d83d b3d9 d1bd
00000330: 0b35 5fbf 1ce0 45bf 08af b4be 8f3c 0d3e
00000340: 4531 15be 9ed7 1ebe 6bde 7740 7fc2 cebe
00000350: 28ae dfbe 92a9 133d fc90 cf3c d78b 73bb
00000360: 75d2 b23f f50f 623f 6035 c1bf d1a0 b2bb
00000370: d7e1 433c 14e3 9a3c 784d 2bbf 318f 693f
00000380: 4cf0 773e 56ad 10be 4ac5 313d 8c67 743d
00000390: f3ae 42be 229f 06bf 204f be3f fbee 4d3c
000003a0: c2dc 033d 4ff5 00bb 18bf 103e c77b 613e
000003b0: 0792 493f 5e05 5d3d 165a e8bc 7db3 803c
000003c0: ee47 19be 4eec bebf b74e 03bf 6681 c2bd
000003d0: cf06 02be f2a1 0f3e c3ad 053f 032c 3ec0
000003e0: 6ec6 5a3f 1549 383c 1f4a 91be 9ac1 463d
000003f0: 3c36 0bbf 2b3c ec3e 8de9 823f 2a2f d43d

sequential/dense_1/MatMul f4 [64, 64]
-0.6650915 0.13902514 0.13149153 -0.29905123 0.15082099 -0.21494971 0.39473242 0.029635718
0.12483556 -0.12685652 0.0447029 -0.5959048 0.003959668 -0.09757439 -1.3460027 -0.26210696
-0.7399282 0.021508632 0.3784983 -0.47427347 -0.8222109 0.32668567 -0.061968304 -0.2162479
0.25995493 0.0249076 0.09109377 0.10642816 -0.7752116 0.11012301 0.32791385 -0.17245723
0.28961954 0.29684994 -0.15591809 -0.20100813 -0.21152371 -0.5373184 0.13620813 -0.0781848
0.25011867 0.11912302 0.105593435 0.5077461 0.4005222 0.07402986 0.038916457 0.12951542
0.0071763247 -0.4298273 0.19346501 0.057345677 0.10950913 -0.057986014 -0.16641207 0.29282293
0.045532864 -0.093942545 -0.021757707 -0.07286938 -0.0048321094 -0.09005492 -0.589506 -1.0157331
-0.302071 0.1380928 -0.066099375 0.032704093 -0.6543657 0.1349293 -2.087822 -0.22797245
0.47215033 -0.07196729 -0.04930085 -0.88658524 -0.017127331 -1.3399311 0.0023047344 0.9728859
0.22301067 0.13344127 0.24248093 0.1707804 0.19040649 -0.298413 -0.5919442 -0.4322455
0.3100275 -0.68044114 0.032605562 0.108876035 0.18203583 -0.28649187 0.3106074 -0.28754666
-0.1426664 -0.098698825 -0.07179221 0.96227646 -0.05475346 -0.09969531 0.15950938 -0.13901338
-0.013649557 0.75538033 -0.36985904 -0.21163674 -0.7313578 0.042328354 -0.62907267 0.5484615
-0.14954889 -0.05429806 -0.033196993 0.08058767 0.05567884 -0.06425855 0.16724855 0.06524973
0.19476086 -0.83363783 -0.27259886 -0.33645955 0.7969861 -0.18600832 -0.45817524 0.5247902
-0.6422088 -0.42770508 -0.0746615 0.877446 -0.34447157 -0.8335131 -0.21190564 0.08055469
-0.052306548 0.15861665 -0.22862382 -2.2224064 0.068550594 0.34075463 0.05253256 -0.85220534
-0.25142083 -0.027198972 0.04287635 0.08069951 0.11482395 -0.015193454 -0.12155383 0.49651352
0.37406272 -0.0733411 0.15794499 -0.42120907 -0.16219497 -1.7182231 -0.323983 -0.8220555
0.16380444 -0.8439674 -0.69941646 0.10001654 -0.36190468 0.15934882 0.1527199 -0.9749044
0.19224203 0.31181303 0.016788652 -0.09313477 -1.2217255 0.3390729 -0.050047074 -0.031219294
0.056172565 -0.056525383 0.28225487 -0.17366086 0.074985564 -0.18982804 0.16984631 0.047474846
-0.10422493 -0.28223675 -0.93169445 -0.91935754 -1.2633442 -0.8945098 -0.4315939 -0.17896618
-0.1748305 -0.046957586 0.1764552 -0.11081035 -0.12707597 0.09676732 0.10854592 -0.36127496
0.0945305 0.028976442 0.14026289 -2.2828798 -0.19996104 -0.4160981 -0.4123217 -0.020842863
-0.36143458 0.11436525 0.33486682 0.21805803 -0.087448455 0.30327883 -0.107678846 -0.69420904
0.15215044 0.15987526 0.13826825 0.037917543 0.09537724 -0.5050213 -0.11324338 -0.29646248
-0.4036597 -0.19098538 0.23485045 0.33027524 -0.24953578 -0.3935933 0.173682 0.11949858
-0.08119228 -0.0881832 0.06603065 0.1037311 0.08089385 0.08296355 -0.03649769 0.31267813
-0.1744606 0.042401034 0.1250154 -0.30087847 0.2534546 0.031512037 -0.0033523727 -0.09629889
0.12927209 -0.15689376 0.22083284 -0.27551898 -0.38188118 0.08983827 0.041002274 -0.23948671
00000000: 7043 2abf 9b5c 0e3e b7a5 063e 3e1d 99be
00000010: d170 1a3e c71b 5cbe 5e1a ca3e 9bc6 f23c
00000020: c9a9 ff3d ade6 01be 631a 373d 388d 18bf
00000030: 1ac0 813b 15d5 c7bd d149 acbf e232 86be
00000040: ef6b 3dbf df32 b03c 87ca c13e f9d3 f2be
00000050: 6a7c 52bf 5843 a73e 7ad2 7dbd 1770 5dbe
00000060: d018 853e 060b cc3c 5f8f ba3d 02f7 d93d
00000070: 4474 46bf 2c88 e13d 53e4 a73e a198 30be
00000080: 0349 943e b7fc 973e fea8 1fbe 13d5 4dbe
00000090: ac99 58be b38d 09bf 257a 0b3e 5a1f a0bd
000000a0: 8e0f 803e c5f6 f33d 5f41 d83d a6fb 013f
000000b0: 3f11 cd3e f89c 973d dd66 1f3d b19f 043e
000000c0: 6027 eb3b 5312 dcbe b11b 463e 4de3 6a3d
000000d0: 5346 e03d be82 6dbd ed67 2abe e3ec 953e
000000e0: ab80 3a3d f364 c0bd 383d b2bc 8b3c 95bd
000000f0: ac56 9ebb b76e b8bd dde9 16bf 8b03 82bf
00000100: 0da9 9abe 3368 0d3e 1c5f 87bd baf4 053d
00000110: 8384 27bf e82a 0a3e e09e 05c0 9c71 69be
00000120: b0bd f13e 9663 93bd b0ef 49bd 40f7 62bf
00000130: 9e4e 8cbc dd82 abbf 070b 173b 0d0f 793f
00000140: e95c 643e d4a4 083e ec4c 783e 0fe1 2e3e
00000150: ebf9 423e 97c9 98be a889 17bf 484f ddbe
00000160: edbb 9e3e 6431 2ebf 698d 053d 66fa de3d
00000170: 9a67 3a3e 10af 92be ef07 9f3e 5139 93be
00000180: 2417 12be 9c22 cabd cb07 93bd c057 763f
00000190: 2a45 60bd 0e2d ccbd 6d56 233e 8659 0ebe
000001a0: 64a2 5fbc 9b60 413f 2a5e bdbe 4db7 58be
000001b0: 443a 3bbf 7f60 2d3d e80a 21bf f967 0c3f
000001c0: 5823 19be a467 5ebd 92f9 07bd 260b a53d
000001d0: 7f0f 643d fd99 83bd 3443 2b3e a7a1 853d
000001e0: 646f 473e 4a69 55bf 1492 8bbe 6d44 acbe
000001f0: 4807 4c3f f778 3ebe f295 eabe a758 063f
00000200: cc67 24bf 29fc dabe 21e8 98bd 4da0 603f
00000210: 945e b0be 1d61 55bf cbfd 58be dbf9 a43d
00000220: 643f 56bd 676c 223e 5d1c 6abe e83b 0ec0
00000230: 4164 8c3d 6477 ae3e 622c 573d 212a 5abf
00000240: 3bba 80be 61d0 debc 1d9f 2f3d c945 a53d
00000250: d228 eb3d f7ed 78bc 37f1 f8bd 0537 fe3e
00000260: 2685 bf3e dc33 96bd 55bc 213e b7a8 d7be
00000270: 7016 26be bcee dbbf 1ae1 a5be 3b72 52bf
00000280: 5abc 273e 3f0e 58bf f50c 33bf 79d5 cc3d
00000290: 924b b9be 562c 233e 9b62 1c3e 5693 79bf
000002a0: 18db 443e f5a5 9f3e 5b88 893c 71bd bebd
000002b0: 8061 9cbf f79a ad3e 29fe 4cbd 9bbf ffbc
000002c0: 3415 663d 2987 67bd b683 903e 27d4 31be
000002d0: 0892 993d 4862 42be 31ec 2d3e fc74 423d
000002e0: e173 d5bd 5681 90be 8783 6ebf 045b 6bbf
000002f0: 43b5 a1bf 98fe 64bf e0f9 dcbe e942 37be
00000300: c406 33be 9956 40bd acb0 343e 89f0 e2bd
00000310: 3420 02be f22d c63d 534d de3d 08f9 b8be
00000320: 3599 c13d 0160 ed3c 13a1 0f3e b41a 12c0
00000330: 96c2 4cbe cf0a d5be d41b d3be a7be aabc
00000340: f40d b9be 5438 ea3d aa73 ab3e 9b4a 5f3e
00000350: 2d18 b3bd 5d47 9b3e ba86 dcbd afb7 31bf
00000360: 53cd 1b3e 57b6 233e 3196 0d3e 6d4f 1b3d
00000370: 2455 c33d 1349 01bf 25ec e7bd eec9 97be
00000380: 7cac cebe ac91 43be a37c 703e d619 a93e
00000390: 4f86 7fbe 1085 c9be b2d9 313e acbb f43d
000003a0: 2348 a6bd 6599 b4bd 143b 873d f970 d43d
000003b0: adab a53d cbe8 a93d 9a7e 15bd 5917 a03e
000003c0: cda5 32be b5ac 2d3d 0904 003e be0c 9abe
000003d0: cdc4 813e c412 013d 7bb3 5bbb 5a38 c5bd
000003e0: e75f 043e c2a8 20be 0122 623e d310 8dbe
000003f0: ee85 c3be 20fd b73d 00f2 273d 013c 75be

sequential/dense_2/MatMul f4 [6, 64]
-0.16661881 -0.19724172 0.19483423 -0.11299736 0.006980437 0.7038606 -0.6240296 -0.25186327
0.15657464 0.18043604 0.2560763 -0.8740582 0.108059414 -0.33810937 -0.025991205 -0.79988
0.106950805 -0.86433524 0.5411102 0.3966755 0.21304469 -1.166604 0.14193836 0.21350238
-0.08336037 0.06291662 -0.04984407 0.019114768 0.032165244 -0.11430694 0.021153701 -0.95807356
0.0336127 0.47786656 -0.1652236 -0.29106262 -0.10092938 0.44706413 0.2870869 -0.88996583
0.47920877 0.40315703 -0.23404317 -0.083426595 0.19602664 -0.46875104 -0.009117999 0.3056739
-0.055939615 0.029973231 -0.55095834 0.13177899 -0.025201462 -0.20633978 0.0084105525 0.5116997
0.4412495 0.619357 0.45857677 0.05789954 -1.4512609 -0.36484212 0.21603712 -0.3702591
0.0833211 -0.07602192 0.006827171 0.15369658 0.05483419 -0.08584081 0.21535987 -0.12645116
0.014199375 -0.09708812 0.052122474 0.13241057 0.40351695 0.21419704 -0.04255125 -0.17811026
-0.073030815 -0.09810076 -0.15920919 -0.024005387 0.070320345 0.07263932 -0.4329258 -0.022804016
0.23440982 -0.042797904 0.24684043 -0.09693899 0.13612944 -0.014236233 0.02824886 0.8077304
0.099350795 0.1239458 -0.1510401 -0.35994557 -0.553108 -0.023320913 -0.86641663 -0.32357997
0.1404528 0.19624525 0.13057129 -0.21093659 -0.27027893 0.11196874 0.29983056 0.7119057
0.16981575 1.1210135 -0.020049557 0.18941045 0.26445907 -0.289271 0.17964028 0.6087088
-0.65864205 -0.22177817 -0.6289467 0.07775804 0.1838806 0.046635304 0.008924048 0.05332105
0.24698214 -0.09530999 -0.043467943 0.009803706 -0.35350057 -0.012180496 0.08252736 0.45867735
-1.4901042 0.21491121 -1.032966 1.0263177 -0.27157626 0.2161464 -0.4501535 0.7549765
-0.91201186 0.20443977 -0.5240613 -1.3304735 0.6895325 0.3160546 -0.007349766 0.3152038
-0.013909677 0.09413353 -0.19774126 0.009915583 -0.78581554 -1.5087217 -0.2209963 -0.1445101
-0.48710868 -0.9250266 0.31498995 1.1889907 -0.026112236 0.47727323 -0.13449672 1.1107635
0.0750778 0.30026838 0.10282189 0.44628114 0.9907292 0.56539655 -1.0535519 -1.6080123
-0.4199819 -3.0734296 0.09120598 0.038161438 -0.8176183 1.6405617 0.1929394 -1.0864224
0.42322597 -0.9324386 0.45586246 0.021378472 0.2600237 0.10411037 0.5096657 1.4701873
-0.8784123 -0.023528067 -0.031531304 -0.17186569 -0.16527592 -0.40908816 -1.7900324 0.092759
0.28170326 0.23123838 0.14107831 -0.1044229 -0.07868738 -0.56882185 -0.61286724 0.63479674
-0.3014976 0.13125882 0.6462135 -0.6288835 0.31915557 -0.1452536 0.07067767 0.34593603
0.20471664 -0.10274203 0.3322501 -0.08836349 -0.91442454 0.23366615 -0.22688305 -0.09736864
0.0047053793 -0.21022078 -0.45234007 -0.94911855 0.10866711 -1.8314415 0.31599334 0.1006853
-0.9750943 -0.30032718 -0.21990125 0.3600148 0.33349338 -0.14773065 0.14312412 -2.6088357
0.21326952 -0.5091735 -1.8596755 0.063138165 -0.48706576 0.92782193 -0.043892164 0.8886573
0.33308113 1.2509022 -1.8354111 -0.21141411 0.9509295 -0.08683449 -0.10553103 0.25255245
00000000: 1f9e 2abe bcf9 49be a082 473e 296b e7bd
00000010: 26bc e43b 3530 343f 67c0 1fbf 39f4 80be
00000020: 1a55 203e 3ac4 383e 6f1c 833e 47c2 5fbf
00000030: 414e dd3d ac1c adbe 82eb d4bc f0c4 4cbf
00000040: 0609 db3d 1345 5dbf 3386 0a3f 0d19 cb3e
00000050: 6328 5a3e 4853 95bf 4a58 113e 5ea0 5a3e
00000060: d7b8 aabd 6eda 803d 4c29 4cbd 9396 9c3c
00000070: b4bf 033d c219 eabd 874a ad3c 4f44 75bf
00000080: 78ad 093d edaa f43e 6030 29be 2906 95be
00000090: 10b4 cebd 97e5 e43e 0efd 923e cdd4 63bf
000000a0: da5a f53e 996a ce3e 03a9 6fbe 90db aabd
000000b0: 35bb 483e 2300 f0be a963 15bc 4a81 9c3e
000000c0: f020 65bd 6c8a f53c 9b0b 0dbf 12f1 063e
000000d0: 4c73 cebc bc4a 53be 6acc 093c c0fe 023f
000000e0: 74eb e13e 2e8e 1e3f 93ca ea3e 1128 6d3d
000000f0: ebc2 b9bf 96cc babe d638 5d3e 9a92 bdbe
00000100: 41a4 aa3d 61b1 9bbd 76b6 df3b a362 1d3e
00000110: d199 603d 4ecd afbd 4c87 5c3e 6a7c 01be
00000120: 7fa4 683c 23d6 c6bd 607e 553d a396 073e
00000130: c699 ce3e 7856 5b3e 384a 2ebd 8962 36be
00000140: 2e91 95bd 0de9 c8bd bc07 23be f2a6 c4bc
00000150: 1d04 903d ecc3 943d 73a8 ddbe 7dcf babc
00000160: 2109 703e db4c 2fbd bdc3 7c3e f387 c6bd
00000170: 8465 0b3e 173f 69bc 276a e73c 6bc7 4e3f
00000180: 6e78 cb3d 4cd7 fd3d 42aa 1abe c94a b8be
00000190: 7c98 0dbf 800b bfbc 7bcd 5dbf 46ac a5be
000001a0: dcd2 0f3e 84f4 483e 7bb4 053e c3ff 57be
000001b0: 0062 8abe de4f e53d 6483 993e 743f 363f
000001c0: 2ee4 2d3e 5f7d 8f3f f83e a4bc d0f4 413e
000001d0: 2e67 873e 541b 94be 9ff3 373e 57d4 1b3f
000001e0: c49c 28bf d119 63be a702 21bf 9b3f 9f3d
000001f0: 324b 3c3e a904 3f3d 2c36 123c 2c67 5a3d
00000200: e3e8 7c3e e231 c3bd 710b 32bd b99f 203c
00000210: 07fe b4be b490 47bc 1b04 a93d c2d7 ea3e
00000220: bcbb bebf af11 5c3e 3b38 84bf 615e 833f
00000230: 0b0c 8bbe 7b55 5d3e 857a e6be 2446 413f
00000240: 9c79 69bf a958 513e e228 06bf f54c aabf
00000250: 3485 303f e9d1 a13e 4ed6 f0bb 6462 a13e
00000260: 6ae5 63bc 15c9 c03d af7c 4abe f874 223c
00000270: 352b 49bf cb1d c1bf db4c 62be 75fa 13be
00000280: 4f66 f9be 8bce 6cbf 5d46 a13e d930 983f
00000290: 54e9 d5bc 285d f43e 82b9 09be 802d 8e3f
000002a0: 64c2 993d c7bc 993e 4894 d23d f67e e43e
000002b0: 6ea0 7d3f d4bd 103f cada 86bf 59d3 cdbf
000002c0: de07 d7be 12b3 44c0 33ca ba3d 2b4f 1c3d
000002d0: 6f4f 51bf edfd d13f e891 453e e40f 8bbf
000002e0: 13b1 d83e 4cb4 6ebf ce66 e93e e821 af3c
000002f0: d421 853e d137 d53d 7479 023f 192f bc3f
00000300: a1df 60bf efbd c0bc f826 01bd 8ffd 2fbe
00000310: 173e 29be 0174 d1be c81f e5bf 6ef8 bd3d
00000320: 693b 903e c1c9 6c3e d576 103e acdb d5bd
00000330: d926 a1bd 4f9e 11bf dee4 1cbf 0a82 223f
00000340: e55d 9abe b668 063e 3f6e 253f 82fe 20bf
00000350: 5c68 a33e 5cbd 14be 74bf 903d 871e b13e
00000360: 3da1 513e 6a6a d2bd af1c aa3e ebf7 b4bd
00000370: ba17 6abf 2e46 6f3e 0854 68be 3669 c7bd
00000380: 952f 9a3b 1e44 57be 1e99 e7be 6ff9 72bf
00000390: dd8c de3d ad6c eabf e1c9 a13e 1834 ce3d
000003a0: c89f 79bf 7cc4 99be cb2d 61be dc53 b83e
000003b0: a5bf aa3e b446 17be 218f 123e 2af7 26c0
000003c0: 5363 5a3e 3259 02bf d909 eebf 954e 813d
000003d0: af60 f9be bd85 6d3f 45c8 33bd 0b7f 633f
000003e0: 9c89 aa3e 901d a03f c0ee eabf f17c 58be
000003f0: 1e70 733f 48d6 b1bd a720 d8bd 8e4e 813e
