converted_model (1).tflite (tflite, 172704 bytes, 10 tensors)

sequential/dense/BiasAdd/ReadVariableOp f4 [64]
0.30342996 -0.2735707 -0.1976674 -0.06627826 0.29507947 -0.14401451 -0.20895277 -0.28052762
-0.182261 -0.22500451 0.053309366 -0.1667774 -0.2650767 -0.006241904 -0.02874969 -0.2807899
-0.126642 0.27398366 0.010525573 -0.26895708 -0.06845775 0.29620817 -0.015326018 -0.38888264
-0.14672272 0.15894747 -0.13189453 -0.20558307 -0.07754988 -0.1350506 -0.1982775 -0.11040708
-0.27127987 -0.17991665 -0.09008493 -0.14433959 -0.17426473 0.062971264 -0.16562417 -0.22438177
0.14339137 -0.103941806 0.38746125 -0.16538192 -0.3329402 0.0795722 -0.0450802 -0.1267177
-0.019473737 0.028170709 -0.22979261 -0.06420286 -0.07804226 -0.28343064 -0.24648571 -0.25115377
0.38869143 -0.033491254 0.15258874 -0.12135435 -0.00533807 -0.02323489 0.0140798455 -0.06919689
00000000: 2c5b 9b3e 7511 8cbe 5369 4abe e5bc 87bd
00000010: a814 973e 8a78 13be b7f7 55be 51a1 8fbe
00000020: a1a2 3abe 9567 66be ec5a 5a3d b2c7 2abe
00000030: 22b8 87be e388 ccbb 7884 ebbc b2c3 8fbe
00000040: 71ae 01be 9647 8c3e 7473 2c3c beb4 89be
00000050: 9433 8cbd 99a8 973e fb19 7bbc a01b c7be
00000060: 7b3e 16be 20c3 223e 5c0f 07be 5e84 52be
00000070: 79d2 9ebd b44a 0abe 4209 4bbe 1b1d e2bd
00000080: 32e5 8abe 123c 38be 737e b8bd c2cd 13be
00000090: 7472 32be 14f7 803d 6299 29be 56c4 65be
000000a0: 30d5 123e 71df d4bd 5261 c63e e159 29be
000000b0: 2377 aabe c0f6 a23d 04a6 38bd 49c2 01be
000000c0: 6387 9fbc 42c6 e63c c14e 6bbe ca7c 83bd
000000d0: 9fd4 9fbd d21d 91be c066 7cbe 3a97 80be
000000e0: 9002 c73e 202e 09bd 3940 1c3e a188 f8bd
000000f0: faea aebb 1957 bebc 27af 663c 19b7 8dbd

sequential/dense_4/BiasAdd/ReadVariableOp f4 [6]
0.022331186 -0.1370599 0.16106781 -0.116896436 -0.06453819 0.058848687
00000000: e4ef b63c 6e59 0cbe f6ee 243e 6667 efbd
00000010: 992c 84bd 520b 713d

sequential/dense_3/BiasAdd/ReadVariableOp f4 [128]
0.09217934 0.108741954 0.16670518 0.11839059 -0.03624604 0.3763493 -0.19450222 0.1604124
0.2726268 -0.09449324 -0.06123386 0.18893172 -0.08082708 0.107560605 0.0138810715 -0.12211587
-0.018986218 -0.34709167 -0.10496184 0.027779346 -0.16281188 0.174843 -0.084632345 0.11936559
-0.24428785 -0.048002616 -0.06516029 0.022180399 -0.2509826 -0.117628835 -0.051214542 -0.0685922
-0.07880843 -0.04362317 -0.06015371 -0.10962995 -0.06950666 0.05227578 -0.061530814 -0.09741153
-0.056024306 0.04753624 -0.098803364 -0.056955207 0.20646636 0.11049866 -0.36454564 0.062188942
-0.15369128 -0.09566077 0.42104265 -0.090266384 0.13929164 -0.04178804 -0.0041021737 0.20338687
-0.59452707 0.14693356 0.1439365 0.1267762 -0.09758076 0.07308471 0.29539946 0.22746922
0.21028636 0.17077225 -0.08960827 0.23716055 -0.39486414 -0.19956112 0.015636427 0.27586192
0.20851003 0.10775927 -0.07989693 0.2725012 0.0050290185 -0.0012071948 0.11079958 -0.14877973
0.0520219 -0.050598953 -0.090043016 -0.1440846 0.41586214 -0.073312275 -0.09394735 0.11733512
0.10609508 -0.2332193 -0.07751281 0.12912473 0.077733934 -0.0815385 -0.40347508 -0.06257934
-0.13302082 -0.09723822 -0.0018880402 0.17266908 0.22912449 0.025946362 -0.102363676 0.03913566
0.18415198 -0.09706526 0.057364874 -0.14661056 -0.07259199 0.037221078 -0.16802573 -0.044084664
-0.2977128 0.15232994 -0.86498797 -0.118647486 0.23786668 0.08973865 -0.1436032 0.25410107
0.20377772 0.034343723 0.002559306 -0.41568777 0.28597158 -0.08293398 -0.031651977 0.16013576
00000000: 86c8 bc3d 1ab4 de3d c3b4 2a3e c476 f23d
00000010: ba76 14bd dbb0 c03e 972b 47be 2643 243e
00000020: bd95 8b3e ac85 c1bd 5bd0 7abd 5177 413e
00000030: ab88 a5bd bc48 dc3d 6f6d 633c e317 fabd
00000040: fc88 9bbc 00b6 b1be 3cf6 d6bd 8391 e33c
00000050: 28b8 26be 0b0a 333e b953 adbd f275 f43d
00000060: 9826 7abe 649e 44bd c272 85bd abb3 b53c
00000070: cb80 80be 63e7 f0bd 57c6 51bd 117a 8cbd
00000080: 5066 a1bd 36ae 32bd bd63 76bd ab85 e0bd
00000090: 8259 8ebd 211f 563d bc07 7cbd b27f c7bd
000000a0: be79 65bd 5cb5 423d 6b59 cabd dd49 69bd
000000b0: eb6b 533e 1f4d e23d baa5 babe d5b9 7e3d
000000c0: 3f61 1dbe cbe9 c3bd e792 d73e 95dd b8bd
000000d0: 78a2 0e3e f029 2bbd 876b 86bb a644 503e
000000e0: ed32 18bf c075 163e 1764 133e 9fd1 013e
000000f0: 6cd8 c7bd 70ad 953d 993e 973e b1ed 683e
00000100: 4f55 573e ecde 2e3e 8a84 b7bd 37da 723e
00000110: a22b cabe c059 4cbe f717 803c c63d 8d3e
00000120: a783 553e e4b0 dc3d 00a1 a3bd 4785 8b3e
00000130: 77ca a43b bc3a 9eba e4ea e23d b759 18be
00000140: ea14 553d d940 4fbd 7968 b8bd ea8a 13be
00000150: e2eb d43e bf24 96bd 7867 c0bd 654d f03d
00000160: 6148 d93d 0ad1 6ebe 09bf 9ebd 4639 043e
00000170: f832 9f3d a8fd a6bd 4994 cebe 9929 80bd
00000180: 9c36 08be d524 c7bd 1e78 f7ba 2ad0 303e
00000190: 9c9f 6a3e 778d d43c 0ca4 d1bd b74c 203d
000001a0: 5692 3c3e 27ca c6bd 6ef7 6a3d 1421 16be
000001b0: 1cab 94bd 2175 183d f00e 2cbe 1f92 34bd
000001c0: d06d 98be 61fc 1b3e da6f 5dbf 74fd f2bd
000001d0: 5393 733e e6c8 b73d b80c 13be 8919 823e
000001e0: 1bab 503e 01ac 0c3d 08ba 273b 07d5 d4be
000001f0: de6a 923e 4ad9 a9bd 81a5 01bd a1fa 233e

sequential/dense_2/BiasAdd/ReadVariableOp f4 [128]
0.29179865 0.09517196 0.2436166 -0.07625525 -0.19731833 0.11382886 -0.07340469 -0.051240567
-0.05213051 0.10333962 -0.15211886 -0.38307098 0.02284593 0.012375682 -0.05147961 -0.073251836
-0.08204329 -0.04856769 -0.108504675 0.049048573 -0.4289697 -0.22475486 -0.23005287 0.11078607
0.12796113 0.013761866 -0.14232397 0.22600296 0.03551406 -0.021933587 0.1274778 0.022962032
0.14339067 -0.1657924 0.13655527 -0.39602607 -0.4241113 0.0010038344 -0.06302003 -0.11539852
-0.1549006 -0.40788397 -0.06935988 -0.25348878 0.022495154 0.1079704 0.070596784 0.03178654
0.08452799 0.09100298 -0.73298043 0.13142149 -0.23122947 0.03699757 0.0038860608 -0.012650764
-0.4258412 -0.03558965 0.14552332 0.120796405 0.30342403 -0.11768672 -0.32404104 -0.056403626
0.04609526 0.09535346 -0.056463152 0.00013511235 0.30194357 -0.09544896 0.01162945 -0.111795485
0.29863358 -0.11432746 -0.31716925 -0.15622301 0.027220717 -0.05980318 0.1549343 -0.0035262713
0.019775499 -0.07444272 -0.061072428 -0.143794 0.18749835 -0.033949945 0.18817204 0.29050756
0.092427745 -0.044745788 -0.09382612 0.1098286 0.18018852 -0.10470013 0.31839392 0.21795113
0.22909638 -0.13280174 0.019631842 0.09257881 0.013663462 0.14747486 -0.2397375 0.042042926
-0.26740873 -0.008486399 0.055788342 0.09021025 -0.039771136 0.03164237 -0.03553581 0.07442294
0.12605354 -0.18398082 -0.3026538 -0.3199908 -0.3191369 0.4328104 -0.5029299 0.033277333
-0.14508142 0.22230928 0.015090611 0.16274717 -0.25371304 0.03366781 -0.072788544 -0.2510958
00000000: a266 953e 84e9 c23d a176 793e b62b 9cbd
00000010: d10d 4abe 1b1f e93d 3355 96bd a1e1 51bd
00000020: cd86 55bd b9a3 d33d 0cc5 1bbe e121 c4be
00000030: 6327 bb3c 5fc3 4a3c 49dc 52bd 0f05 96bd
00000040: 5006 a8bd eaee 46bd b337 debd 28e7 483d
00000050: eba1 dbbe 2326 66be fb92 6bbe cfe3 e23d
00000060: 3e08 033e 7379 613c 60bd 11be 526d 673e
00000070: 3177 113d 11ae b3bc 8a89 023e df1a bc3c
00000080: 01d5 123e 7cc5 29be 25d5 0b3e eec3 cabe
00000090: 1e25 d9be 1893 833a a510 81bd 0f56 ecbd
000000a0: 439e 1ebe 2bd6 d0be 8e0c 8ebd 48c9 81be
000000b0: c247 b83c 961f dd3d 0c95 903d 9a32 023d
000000c0: 031d ad3d c55f ba3d 9ba4 3bbf 5b93 063e
000000d0: 6bc7 6cbe c48a 173d 48ad 7e3b 2645 4fbc
000000e0: dc07 dabe 74c6 11bd 1104 153e 1b64 f73d
000000f0: 655a 9b3e bc05 f1bd b5e8 a5be 7d07 67bd
00000100: 62ce 3c3d ad48 c33d e845 67bd f2ac 0d39
00000110: 5998 9a3e bf7a c3bd 7389 3e3c 08f5 e4bd
00000120: 80e6 983e 8424 eabd 0264 a2be edf8 1fbe
00000130: fbfd de3c 2ef4 74bd 19a7 1e3e 0419 67bb
00000140: 3a00 a23c 6d75 98bd 1527 7abd bc3e 13be
00000150: 91ff 3f3e 190f 0bbd 2cb0 403e 68bd 943e
00000160: c24a bd3d 5c47 37bd e927 c0bd d1ed e03d
00000170: 5783 383e 066d d6bd 8704 a33e 952e 5f3e
00000180: 3e98 6a3e 2efd 07be f5d2 a03c f699 bd3d
00000190: b7dc 5f3c a603 173e bf7d 75be 3435 2c3d
000001a0: cce9 88be 8a0a 0bbc 5182 643d 27c0 b83d
000001b0: 0fe7 22bd 6e9b 013d ff8d 11bd 0e6b 983d
000001c0: 2e14 013e 7865 3cbe 70f5 9abe d6d5 a3be
000001d0: e965 a3be 5399 dd3e 04c0 00bf d04d 083d
000001e0: 3990 14be 0ba5 633e 9c3e 773c 32a7 263e
000001f0: ade6 81be 42e7 093d 2912 95bd a18f 80be

sequential/dense_1/BiasAdd/ReadVariableOp f4 [128]
-0.025572311 -0.22570741 0.22340481 -0.13789248 0.07098807 -0.38425574 0.07750999 -0.13930428
-0.102595456 0.09026645 -0.036250092 0.17127562 0.06493731 -0.2419116 -0.16219248 -0.1944647
-0.11514911 0.2671283 0.20082824 -0.058004968 0.0679612 -0.08641141 -0.0051721563 -0.07196134
-0.3261926 0.40161723 -0.0123533495 0.20313582 -0.12402568 -0.11774458 0.18851992 -0.1051705
-0.09395814 -0.4104326 -0.042862035 0.04612007 -0.27504316 -0.0014095083 0.25670353 -0.21651712
-0.04963161 0.0011180715 0.037628338 -0.21233678 -0.08401881 -0.12511899 -0.03618426 -0.12263222
0.025181882 -0.033807985 -0.020549286 -0.16264303 -0.21961087 -0.25259265 0.21976258 0.06621664
-0.26429087 0.16492087 0.13239515 -0.1447008 0.15818286 -0.17133848 0.13304651 -0.13048336
-0.4309063 0.30963486 -0.045337632 -0.116611265 0.24423862 -0.31795067 -0.031132856 -0.13324271
-0.042091522 -0.13248014 -0.012287305 0.2814848 0.1817844 0.1890071 0.240032 0.0105301635
-0.15059158 -0.043936778 0.3216117 -0.001027758 -0.09416886 0.025334854 -0.3531759 0.36359996
-0.21951383 -0.12214971 -0.07800726 -0.12628376 -0.15919617 0.16775241 -0.28824657 0.088686
0.20668021 -0.2849767 0.23791017 0.108483694 0.17569439 0.3659028 -0.18614528 0.041551787
-0.004426937 -0.021269878 0.044537567 0.1097554 -0.05993909 -0.18213513 -0.45598632 0.03389983
0.03089508 0.07415993 -0.266035 0.15289406 -0.36326587 -0.29681855 -0.07497136 0.009582088
-0.079189286 -0.17163105 -0.019928582 -0.29052797 0.21671596 -0.030519167 0.4146647 0.3747827
00000000: 067d d1bc d81f 67be 3bc4 643e b033 0dbe
00000010: 3162 913d 2bbd c4be 8fbd 9e3d c8a5 0ebe
00000020: 911d d2bd 9edd b83d fa7a 14bd e062 2f3e
00000030: dafd 843d adb7 77be c915 26be c121 47be
00000040: 4cd3 ebbd 0ac5 883e eba5 4d3e 9e96 6dbd
00000050: 3e2f 8b3d 77f8 b0bd 317b a9bb 7860 93bd
00000060: b702 a7be c6a0 cd3e b465 4abc d602 503e
00000070: 2d01 febd 1224 f1bd 5e0b 413e a263 d7bd
00000080: 206d c0bd 3924 d2be 1a90 2fbd 66e8 3c3d
00000090: 75d2 8cbe 40bf b8ba a56e 833e aab6 5dbe
000000a0: 844a 4bbd 418c 923a 2c20 1a3d d06e 59be
000000b0: 0e12 acbd 311f 00be f235 14bd 9a26 fbbd
000000c0: 3c4a ce3c 3e7a 0abd fa56 a8bc e58b 26be
000000d0: ace1 60be d353 81be 7109 613e 979c 873d
000000e0: 2251 87be 04e1 283e 9892 073e 722c 14be
000000f0: b0fa 213e 5b73 2fbe 583d 083e 6e9d 05be
00000100: c09f dcbe 7688 9e3e f4b3 39bd e3d1 eebd
00000110: b019 7a3e 6eca a2be 550a ffbc c770 08be
00000120: 2968 2cbd e0a8 07be b150 49bc c71e 903e
00000130: b125 3a3e 148b 413e f3ca 753e b586 2c3c
00000140: ae34 1abe 0df7 33bd 4aaa a43e d6b5 86ba
00000150: 9adb c0bd 0a8b cf3c 79d3 b4be c629 ba3e
00000160: 3cc8 60be a129 fabd 45c2 9fbd 8850 01be
00000170: 5204 23be 4ac7 2b3e 0e95 93be 01a1 b53d
00000180: faa3 533e 77e8 91be b99e 733e b32c de3d
00000190: 3be9 333e 9d57 bb3e de9c 3ebe 3532 2a3d
000001a0: d70f 91bb 2b3e aebc 066d 363d 70c7 e03d
000001b0: b182 75bd a281 3abe 0a77 e9be 8cda 0a3d
000001c0: ae17 fd3c 29e1 973d bd35 88be 4390 1c3e
000001d0: fcfd b9be 9af8 97be 968a 99bd 31fe 1c3c
000001e0: fe2d a2bd 0dc0 2fbe 4441 a3bc 15c0 94be
000001f0: caea 5d3e 5503 fabc ee4e d43e 85e3 bf3e

sequential/dense/MatMul f4 [64, 3]
-0.17439893 -0.1955707 0.6655697 -0.7009024 0.1116246 -0.18038322 0.3421276 0.16572931
-0.29434028 -0.7766206 0.28707534 0.41166186 -0.0070310594 -0.15565918 0.20307854 -0.35892156
-0.5480233 0.29765564 -0.4227852 -0.22111376 -0.35566676 -0.08800223 0.3815641 -0.038731962
0.58307344 -0.8358327 -0.0056550098 -0.014947239 -0.013391999 -0.03699692 -0.6817578 -0.30053368
0.35849676 -0.17870146 -0.2175168 -0.41768134 0.09300428 0.21874051 -0.23967065 0.056831103
0.44435784 0.33626562 0.8177274 0.3303048 0.2645319 -0.3490261 0.17661995 -0.24728228
0.68953747 0.27826452 -0.07412263 -0.16093838 0.006816043 0.6749151 -0.27487874 0.37932596
0.47475016 0.29851475 0.12982425 -0.08145867 0.5731552 0.14107478 -0.26269966 0.0026660366
-0.105410196 0.23787384 0.44836375 -0.112003535 -0.36081702 0.02022277 0.28547102 -0.41832963
-0.3136382 0.03936068 0.31678087 -0.46090734 -0.23137471 0.55785906 -0.03628287 0.021142585
0.06737753 0.16769622 0.17293656 -0.01951396 0.040159546 0.12111592 0.2788013 0.3364491
0.034621067 -0.21677004 0.05456145 -0.0386499 -0.009522645 0.081213474 0.008414932 -0.0029445756
0.058959104 -0.01225972 -0.3188523 -0.2823033 -0.66561025 -0.06547426 0.039542582 0.019453697
0.03754372 0.13989261 -0.33837608 -0.27529448 0.09809772 -0.04225661 -0.45789793 0.15827395
-0.3409775 1.0956736 -0.36892515 -0.1880605 -0.28322563 -0.28948906 -0.17560802 -0.10418142
0.053975757 0.2896802 0.79904574 0.13868013 0.45563167 0.38124493 0.08593657 -0.11754446
0.3182481 0.38234726 0.48765245 -0.096141815 -0.34606108 0.4585399 -0.18356487 -0.43283004
-0.4054919 0.5274306 0.15050168 0.48306018 0.4929142 0.05131581 -0.16853598 0.72296995
-0.24567278 -0.38955975 0.77959734 0.5956935 0.3560881 0.5252914 0.115854904 0.07972631
-0.1306132 0.331712 -0.7664273 -0.13255228 0.32688773 0.53467107 0.20112048 -0.054245073
0.051563416 -0.3876547 -0.17469303 0.44225195 0.05609633 0.19199951 0.18333387 -0.38457623
0.025205152 -0.083659805 0.35333166 -0.6266984 -0.2557016 0.08827188 0.12452062 -0.4084407
0.40069208 -0.002239981 0.018762058 0.1375861 -0.004315229 -0.7218051 -0.33928385 0.14185873
0.5146992 0.27609685 0.46120515 -0.58190644 0.53386134 0.13521825 0.399226 -0.055150833
00000000: a295 32be b043 48be c762 2a3f 576e 33bf
00000010: 709b e43d 61b6 38be 592b af3e f2b4 293e
00000020: c5b3 96be 9cd0 46bf 8afb 923e 58c5 d23e
00000030: cd64 e6bb 1f65 1fbe d2f3 4f3e 91c4 b7be
00000040: 414b 0cbf 5266 983e 4d77 d8be a56b 62be
00000050: f419 b6be 833a b4bd 5f5c c33e 68a5 1ebd
00000060: 4d44 153f 22f9 55bf a94d b9bb 44e5 74bc
00000070: 1d6a 5bbc 158a 17bd ae87 2ebf 8ddf 99be
00000080: e38c b73e 84fd 36be b9bc 5ebe 54da d5be
00000090: 0779 be3d 83fd 5f3e 396c 75be bbc7 683d
000000a0: df82 e33e 022b ac3e 9556 513f b61d a93e
000000b0: ba70 873e 8db3 b2be dcdb 343e 9137 7dbe
000000c0: 8785 303f b078 8e3e 9bcd 97bd 08cd 24be
000000d0: 1d59 df3b 3cc7 2c3f e8bc 8cbe 0337 c23e
000000e0: 7412 f33e edd6 983e a6f0 043e ced3 a6bd
000000f0: 4dba 123f e875 103e 9280 86be acb8 2e3b
00000100: 4de1 d7bd 3395 733e ef8f e53e 1c62 e5bd
00000110: 02bd b8be 39aa a53c 4229 923e 4d2f d6be
00000120: 3095 a0be aa38 213d 1a31 a23e 0cfc ebbe
00000130: 7eed 6cbe dacf 0e3f 599d 14bd 3733 ad3c
00000140: 3bfd 893d 8fb8 2b3e 4816 313e bedb 9fbc
00000150: 567e 243d a00b f83d 0bbf 8e3e 0e43 ac3e
00000160: d2ce 0d3d f7f8 5dbe d47b 5f3d 5c4f 1ebd
00000170: de04 1cbc 4053 a63d c8de 093c c8f9 40bb
00000180: 1a7f 713d fedc 48bc 9c40 a3be 0f8a 90be
00000190: 6f65 2abf 5e17 86bd 67f7 213d 5c5d 9f3c
000001a0: 72c7 193d 0240 0f3e a13f adbe 66f3 8cbe
000001b0: 75e7 c83d 4415 2dbd 9971 eabe 9112 223e
000001c0: 9a94 aebe 083f 8c3f c2e3 bcbe ef92 40be
000001d0: f302 91be e937 94be 97d2 33be 115d d5bd
000001e0: af15 5d3d f750 943e 438e 4c3f 2a02 0e3e
000001f0: 8e48 e93e 8932 c33e 83ff af3d 26bb f0bd
00000200: 6af1 a23e 05c3 c33e 95ad f93e 00e6 c4bd
00000210: eb2e b1be bec5 ea3e 6ef8 3bbe e69b ddbe
00000220: a29c cfbe b105 073f 1d1d 1a3e aa53 f73e
00000230: 405f fc3e 8730 523d b294 2cbe 8f14 393f
00000240: a591 7bbe 6074 c7be b193 473f 5f7f 183f
00000250: 2e51 b63e 7f79 063f 5645 ed3d 8c47 a33d
00000260: 77bf 05be 28d6 a93e 9434 44bf c9bb 07be
00000270: d45d a73e 34e0 083f 87f2 4d3e 1530 5ebd
00000280: 2934 533d ad7a c6be bbe2 32be d96e e23e
00000290: 44c5 653d 859b 443e e0bb 3b3e 2de7 c4be
000002a0: 097b ce3c d555 abbd e3e7 b43e 4e6f 20bf
000002b0: 52eb 82be e3c7 b43d ab04 ff3d 241f d1be
000002c0: 8327 cd3e a5cc 12bb e3b2 993c 5fe3 0c3e
000002d0: c466 8dbb 38c8 38bf 9db6 adbe 6a43 113e
000002e0: 54c3 033f 915c 8d3e 1523 ec3e d2f7 14bf
000002f0: 23ab 083f a776 0a3e 5a67 cc3e d7e5 61bd

sequential/dense_1/MatMul f4 [128, 64]
0.24182631 -1.1292124 -0.0063097617 0.24743776 0.02925358 -0.028825954 -0.2675231 -0.27713022
0.6223374 0.18476683 0.21631327 -0.07680762 -1.2068521 -1.5366471 -0.32293066 -1.6156758
-0.102583885 0.06754695 0.011274698 -0.5412091 0.08708415 0.0813428 0.22286342 -1.1736257
0.41388318 -0.08439817 0.12160048 0.024650464 -0.8326737 0.15900344 0.18920112 0.10565454
-0.17003548 -0.0034231758 -0.01658925 0.08662513 0.06394462 0.28819057 -0.3886952 -0.2663817
-0.027869916 -2.1785798 0.2196655 -0.3462949 -0.33731666 -0.13310494 -0.029797506 -0.44064415
0.6608587 -0.38639227 -0.15430166 0.2549117 -0.6870971 -0.7398064 -0.13608232 0.07332188
0.24274881 -0.26509175 0.03705459 -0.15421978 0.308778 -0.8343865 0.0034439394 -2.309349
0.3088404 -1.812194 -0.0510497 -0.6602668 0.1185135 0.18822928 0.15486768 -0.06202145
0.55999225 0.1116808 -0.34013662 0.328268 -0.3799049 -1.6225287 -0.17220193 -0.7109373
-0.009859366 0.4185421 -0.07026194 -0.70015895 0.14722805 -0.15919174 0.34235078 -0.80642456
-0.39186087 -0.1564926 0.064274095 0.0031511707 -1.2986516 0.031456225 -0.17602094 0.043978192
0.2779028 0.35238096 -0.1536724 0.3362502 0.08141056 0.52804464 -0.123323694 -0.016577093
0.45759037 -3.3027499 0.05197866 -0.15599522 -0.08779864 -0.20917866 0.02567071 -0.16545433
0.0047351434 0.022616372 -0.059850544 0.3076512 -0.36698997 -0.17237787 -0.083200626 -0.11810672
-0.47522813 -0.7008765 -0.11019271 0.04293191 0.29681274 -0.3825949 0.029920701 -2.2399597
-0.4497894 -1.1429693 -0.49514678 -0.05282062 0.28902385 0.2944967 -0.38775167 -0.6282685
-0.5354903 -0.024395805 -0.5025129 -0.06868364 -0.36386937 -0.12594292 -0.0940989 -0.43607923
-0.1765277 0.33185574 0.17987563 -0.14060894 0.012711094 -0.003606186 0.12256426 -0.7067254
-0.43374074 -0.18592645 -0.35552636 0.004874731 0.18893535 -0.12573959 -0.03819583 -0.025175346
-0.077986114 0.23100682 0.056898057 -0.35416028 0.10224585 0.2380938 -0.12259786 -0.06668907
0.24380404 -0.01685702 0.22146991 -0.16388498 -0.44517827 0.051675424 0.09766658 0.3838094
0.73788583 0.08290964 -0.30967268 -0.18711138 0.04632446 -0.2150873 -0.04132235 -0.29322815
0.32133466 -0.85374194 -0.50958925 0.2830512 -0.6532537 -0.1569662 -0.34121513 -0.013547443
0.13452722 0.11123905 0.017011167 0.048845906 -0.13053875 0.12062582 -1.0245535 -0.05629545
0.53339404 0.017357217 -1.4179169 -0.2415186 -0.2553322 -0.37721667 -0.05883895 0.028031554
0.2454001 -0.34382498 -0.75200516 0.016566752 0.32771185 0.20716578 0.2401738 -0.49730238
-0.32960892 -0.8689551 0.17666213 0.19062153 -0.26589665 0.2566138 0.26489255 0.23792471
-0.0027046485 -0.40176886 -0.020476028 -0.01078162 -0.12092945 -0.013772948 -1.0066613 -0.31769973
-0.127048 0.110948555 -0.09515374 -0.08223378 0.16245805 -0.5141309 -0.07353212 -0.7972544
-0.19307911 0.46363288 0.15003183 0.26519376 0.11256382 -0.3730843 0.15676953 -0.027817637
-0.1858633 -1.1607275 0.30838865 -0.001420073 0.082851246 0.3227238 0.18992049 -0.75270295
00000000: 51a1 773e 088a 90bf 1ec2 cebb 5360 7d3e
00000010: 34a5 ef3c 6824 ecbc caf8 88be 03e4 8dbe
00000020: 8151 1f3f 8433 3d3e 3a81 5d3e 504d 9dbd
00000030: 217a 9abf dab0 c4bf 2b57 a5be 77ce cebf
00000040: 8017 d2bd 0e56 8a3d 83b9 383c ae8c 0abf
00000050: 2d59 b23d 0e97 a63d 4f36 643e 5e39 96bf
00000060: 7fe8 d33e f3d8 acbd ac09 f93d c5ef c93c
00000070: 1b2a 55bf ccd1 223e f0bd 413e 6861 d83d
00000080: c81d 2ebe 5c57 60bb 2ee6 87bc 8468 b13d
00000090: 66f5 823d b78d 933e 0f03 c7be 2f63 88be
000000a0: 734f e4bc da6d 0bc0 feef 603e 914d b1be
000000b0: c5b4 acbe a94c 08be e619 f4bc 1c9c e1be
000000c0: 092e 293f 35d5 c5be 4101 1ebe c983 823e
000000d0: 98e5 2fbf f463 3dbf 2a59 0bbe c829 963d
000000e0: 2593 783e 1bba 87be 8ec6 173d caeb 1dbe
000000f0: 2618 9e3e 5b9a 55bf b7b3 613b 60cc 13c0
00000100: 5420 9e3e f9f5 e7bf 7d19 51bd 3f07 29bf
00000110: 35b7 f23d 2dbf 403e a295 1e3e 340a 7ebd
00000120: a75b 0f3f e7b8 e43d 6326 aebe be12 a83e
00000130: e582 c2be 05af cfbf b455 30be fdff 35bf
00000140: 2e89 21bc 264b d63e 7ee5 8fbd 9e3d 33bf
00000150: f3c2 163e 2903 23be 9a48 af3e d771 4ebf
00000160: fda1 c8be 993f 20be 23a2 833d df83 4e3b
00000170: 373a a6bf 3ed8 003d d53e 34be 7a22 343d
00000180: 4749 8e3e 476b b43e 4c5c 1dbe fc28 ac3e
00000190: 94ba a63d ef2d 073f 2291 fcbd afcc 87bc
000001a0: 4949 ea3e 4160 53c0 93e7 543d 36bd 1fbe
000001b0: c6cf b3bd ee32 56be 614b d23c dc6c 29be
000001c0: 4329 9b3b f845 b93c d825 75bd 7584 9d3e
000001d0: 1ce6 bbbe d383 30be 1765 aabd f0e1 f1bd
000001e0: 1a51 f3be a46c 33bf b7ac e1bd 5fd9 2f3d
000001f0: d7f7 973e 7be3 c3be 421c f53c 805b 0fc0
00000200: cc4a e6be d14c 92bf e183 fdbe 6f5a 58bd
00000210: effa 933e 45c8 963e 6387 c6be 34d6 20bf
00000220: e415 09bf b6d9 c7bc afa4 00bf 02aa 8cbd
00000230: 164d babe 2ef7 00be edb6 c0bd c745 dfbe
00000240: adc3 34be ffe8 a93e 5131 383e cafb 0fbe
00000250: 3142 503c c355 6cbb f902 fb3d f5eb 34bf
00000260: 4413 debe 8163 3ebe 8d07 b6be 35bc 9f3b
00000270: 4578 413e e1c1 00be 3b73 1cbd 873c cebc
00000280: 2fb7 9fbd 0d8d 6c3e f00d 693d 7f54 b5be
00000290: 4666 d13d dcce 733e 9614 fbbd 4794 88bd
000002a0: c4a7 793e bc17 8abc 02c9 623e 77d1 27be
000002b0: 68ee e3be 9ca9 533d 6a05 c83d aa82 c43e
000002c0: 16e6 3c3f 88cc a93d 6b8d 9ebe 209a 3fbe
000002d0: b8be 3d3d d83f 5cbe a041 29bd 0022 96be
000002e0: fa85 a43e d58e 5abf 7174 02bf 16ec 903e
000002f0: a23b 27bf bfbb 20be c0b3 aebe 18f6 5dbc
00000300: 81c1 093e 4dd1 e33d 015b 8b3c a512 483d
00000310: f3ab 05be ab0a f73d 9224 83bf 0f96 66bd
00000320: 838c 083f b930 8e3c 4d7e b5bf a750 77be
00000330: e7ba 82be 8b22 c1be 1c01 71bd 6ea2 e53c
00000340: 2a4a 7b3e d409 b0be 6983 40bf ffb6 873c
00000350: d9c9 a73e 4423 543e 1ff0 753e 6b9e febe
00000360: 80c2 a8be d773 5ebf ebe6 343e 4a32 433e
00000370: 9b23 88be e262 833e ff9f 873e 89a2 733e
00000380: 7940 31bb a6b4 cdbe 58bd a7bc 64a5 30bc
00000390: dca9 f7bd eea7 61bc 47da 80bf 8aa9 a2be
000003a0: df18 02be ff38 e33d f7df c2bd 2f6a a8bd
000003b0: 675b 263e 159e 03bf 0298 96bd dd18 4cbf
000003c0: 88b6 45be 4a61 ed3e f2a1 193e 7ac7 873e
000003d0: dc87 e63d e804 bfbe 3188 203e d0e1 e3bc
000003e0: f352 3ebe b892 94bf 1ee5 9d3e be21 baba
000003f0: eaad a93d 0e3c a53e 847a 423e 24b1 40bf

sequential/dense_2/MatMul f4 [128, 128]
-0.19346201 0.15874617 -0.12113348 -2.487483 0.20987469 -0.17861423 0.16268916 -0.78473955
-0.18186057 0.21715963 -0.09978285 0.10861807 0.14255588 0.010168211 -0.0984166 -0.102915026
-0.2702025 -0.10867248 0.013170692 0.063335516 -0.17591886 0.029022345 -0.2684836 0.10408589
-0.028794546 -0.475332 -0.022849789 0.06241875 -0.50596 0.22064419 0.3054105 -0.7320742
-1.2471989 0.3077056 0.023056652 0.0362066 -0.3877026 0.17847511 0.24300776 -0.47173035
0.14695363 -0.022388583 0.21944462 -0.2525446 -0.12252154 -1.0514756 -0.03684412 0.41274834
0.13435835 0.11339671 0.020310974 -0.31260052 -0.11932715 -0.16906475 -0.035727747 -0.90991676
0.036991812 -0.21626997 -0.07793274 0.47231555 0.04721201 0.077939965 -0.007017433 0.11274527
-0.7207387 -0.1217692 -0.04085926 -0.18154977 -0.09763038 -0.08686341 0.08593051 0.022570372
0.44165504 0.030376391 0.18453695 0.22829613 0.111053266 -0.106721334 -0.03806352 0.17528076
0.25074616 -0.0042476356 -0.26567942 -0.2655758 0.031740297 0.161769 0.016359057 0.10485601
-0.32006225 0.27970296 0.09790862 -0.64685696 -0.23112382 -0.0141534535 0.24258728 0.1533982
-0.19738683 0.053044744 0.22213344 0.12637755 0.11712689 -0.01180475 0.07501283 -0.07620993
0.29457748 -0.3275709 0.50738066 -0.80939513 -0.46269184 0.118282296 -0.36594743 -0.6485635
0.16793716 0.01716236 0.22613572 -0.07396817 -0.60623014 0.058395643 -0.6097755 0.39142448
0.07169887 0.16659188 -1.1559478 -1.3122815 0.037181895 -0.09315956 -0.5788723 -1.0263335
-0.22535494 -0.23706074 -0.02805961 0.14046367 0.12283219 -0.73654336 0.16560844 -0.19168423
-0.020967409 -0.6389367 0.03340499 -0.6496537 -0.2500332 -0.2925323 0.6675977 -0.0077249287
-0.07362983 -0.14024846 -0.18998247 0.4153419 0.39206362 -0.68104285 -0.102746524 -0.009547293
-0.44774565 -0.2119748 0.16967255 -1.1536252 -0.5847955 -0.008180389 -0.17607068 0.26930243
0.16918966 -0.09120224 0.11445118 -0.5658543 0.5101583 -0.01931288 -0.02613431 -0.44719455
0.037986465 -0.7659527 -0.030841734 -1.0802997 -0.18798473 0.34483215 -0.22892383 0.12257539
-0.07665521 -0.085014105 -0.085192695 -0.701892 -0.40041673 -0.60219705 -0.32042775 0.040905483
-0.5319627 0.011730152 0.0509132 -0.30160686 0.13783427 0.25397527 0.12901078 0.1693897
-0.1462016 0.16916087 -0.25219402 0.15626748 -0.08894461 -0.18193671 0.07668719 -0.12133137
-0.22451727 -0.24092837 0.14251314 -0.10377618 -0.029826002 -1.410165 0.0789106 -0.055696495
0.29027894 0.14978988 -0.17645155 0.20215507 -0.07355668 -0.11557284 0.22937192 -0.27317274
-0.63533217 -0.071047015 0.44882008 -0.115289345 0.34483057 0.40605542 -0.915442 -0.19770063
-0.1301858 0.38940206 -0.7722784 -0.067150764 -0.1903935 -0.72152704 -1.0207249 -0.40056112
-0.2039538 -0.13003553 0.054499324 0.14499386 0.1983211 0.35892674 -0.2805848 -0.8811422
0.080750205 0.14862913 -0.534266 0.24100333 -0.07751492 0.070541434 -0.27450618 0.2427753
-0.3618454 -1.309203 0.11779789 0.09614215 -1.196663 -0.009463906 -1.0541501 -0.5442588
00000000: e81a 46be 5b8e 223e d414 f8bd ec32 1fc0
00000010: 64e9 563e a6e6 36be fd97 263e b1e4 48bf
00000020: a839 3abe 185f 5e3e f35a ccbd 2773 de3d
00000030: 2bfa 113e 9198 263c a48e c9bd 1dc5 d2bd
00000040: fb57 8abe ad8f debd e3c9 573c 0db6 813d
00000050: 1324 34be 45c0 ed3c af76 89be fc2a d53d
00000060: 8ae2 ebbc b75e f3be 7b2f bbbc ceaa 7f3d
00000070: 9886 01bf 8df0 613e c45e 9c3e 3769 3bbf
00000080: 37a4 9fbf 978b 9d3e 4ee1 bc3c 5f4d 143d
00000090: f580 c6be 2ec2 363e 07d7 783e a486 f1be
000000a0: 037b 163e 4368 b7bc 17b6 603e 874d 81be
000000b0: 93ec fabd c196 86bf dce9 16bd c053 d33e
000000c0: 3c95 093e 893c e83d 3363 a63c 2d0d a0be
000000d0: cb61 f4bd 4f1f 2dbe 4257 12bd 4ef0 68bf
000000e0: ba84 173d e075 5dbe 339b 9fbd 58d3 f13e
000000f0: 6161 413d fd9e 9f3d 7ff2 e5bb fee6 e63d
00000100: 5582 38bf 2162 f9bd 0a5c 27bd 2fe8 39be
00000110: 70f2 c7bd 72e5 b1bd 56fc af3d 80e5 b83c
00000120: 9c20 e23e e9d7 f83c 41f7 3c3e 76c6 693e
00000130: e56f e33d b790 dabd 7ee8 1bbd cd7c 333e
00000140: cd61 803e c02f 8bbb 2207 88be 8df9 87be
00000150: 1d02 023d c6a6 253e 6e03 863c bfbe d63d
00000160: 33df a3be 3a35 8f3e 5184 c83d 6b98 25bf
00000170: b9ab 6cbe e3e3 67bc cd68 783e 6b14 1d3e
00000180: c61f 4abe 7245 593d f376 633e 1e69 013e
00000190: 39e0 ef3d b668 41bc 54a0 993d f413 9cbd
000001a0: dcd2 963e 5fb7 a7be b3e3 013f 8534 4fbf
000001b0: f2e5 ecbe fd3d f23d 765d bbbe 4208 26bf
000001c0: b8f7 2b3e 1498 8c3c 1f90 673e a07c 97bd
000001d0: e631 1bbf 4530 6f3d 3f1a 1cbf ca68 c83e
000001e0: dbd6 923d 1097 2a3e 19f6 93bf d7f8 a7bf
000001f0: 0b4c 183d 70ca bebd fa30 14bf e55e 83bf
00000200: 72c3 66be 0dc0 72be 44dd e5bc b5d5 0f3e
00000210: 718f fb3d 1b8e 3cbf 4295 293e df48 44be
00000220: d8c3 abbc 5b91 23bf acd3 083d b44f 26bf
00000230: 5a04 80be cbc6 95be afe7 2a3f 6621 fdbb
00000240: 3ccb 96bd 4b9d 0fbe c48a 42be b2a7 d43e
00000250: 90bc c83e d358 2ebf c56c d2bd 406c 1cbc
00000260: eb3e e5be ec0f 59be a4be 2d3e fea9 93bf
00000270: 28b5 15bf 0a07 06bc df4b 34be 02e2 893e
00000280: 0e40 2d3e 3dc8 babd 6165 ea3d d4db 10bf
00000290: bc99 023f 0b36 9ebc 9f17 d6bc aff6 e4be
000002a0: b297 1b3d 7a15 44bf cea7 fcbc 4347 8abf
000002b0: 127f 40be d78d b03e 026b 6abe ce08 fb3d
000002c0: 68fd 9cbd e01b aebd 8279 aebd 32af 33bf
000002d0: 6c03 cdbe 9629 1abf 1b0f a4be 828c 273d
000002e0: b52e 08bf d32f 403c 5c8a 503d 376c 9abe
000002f0: 6d24 0d3e 0c09 823e 671b 043e 7e74 2d3e
00000300: dfb5 15be 8238 2d3e 931f 81be 9504 203e
00000310: 9728 b6bd 9e4d 3abe 2c0e 9d3d 957c f8bd
00000320: dbe7 65be edb5 76be f7ee 113e 9b88 d4bd
00000330: a955 f4bc 4980 b4bf e19b a13d 0222 64bd
00000340: 719f 943e 8562 193e b7af 34be bd01 4f3e
00000350: e2a4 96bd 74b1 ecbd 79e0 6a3e 4cdd 8bbe
00000360: 21a5 22bf 1981 91bd bfcb e53e d21c ecbd
00000370: a28d b03e 7fe6 cf3e 685a 6abf 0972 4abe
00000380: 6d4f 05be b55f c73e 0ab4 45bf 5786 89bd
00000390: 83f6 42be ffb5 38bf 1da7 82bf 5916 cdbe
000003a0: 44d9 50be 0928 05be af3a 5f3d 4579 143e
000003b0: b014 4b3e 3fc5 b73e d0a8 8fbe 8992 61bf
000003c0: 5d60 a53d 3c32 183e a8c5 08bf 94c9 763e
000003d0: 24c0 9ebd 0778 903d 138c 8cbe 179a 783e
000003e0: cd43 b9be f793 a7bf 0540 f13d 2de6 c43d
000003f0: 412c 99bf 800e 1bbc 64ee 86bf 8b54 0bbf

sequential/dense_3/MatMul f4 [128, 128]
-0.047661286 -0.28290835 0.1950044 0.06450233 -0.14720984 -0.46226338 -0.03593824 0.09893828
0.08866922 0.026067186 -0.014831971 0.33459628 0.17443681 0.00887104 0.24885124 0.21808444
-0.039331995 0.037021954 0.21795969 -0.27209604 -0.15709762 0.010995781 -0.080236994 0.10394217
-0.20757884 -0.32896158 -0.32222238 -0.031008722 0.14648455 0.17103003 0.010156644 0.1416195
0.2031046 0.4154499 -0.0890133 -0.17305627 0.093736894 0.18978703 0.028122284 -0.09080021
-0.31289622 0.20443162 -0.044506315 -0.12735167 0.17955534 -0.15381798 -0.09304084 -0.2214046
-0.14619394 0.36850595 -0.39356533 0.14285648 -0.03260498 -0.036369644 -0.3956054 0.070627995
-0.4295898 -0.20791571 -0.28603107 0.15937904 -0.31549162 -0.003076882 0.10678723 -0.16760236
-0.124802284 -0.08978892 -0.025069432 0.14007951 -0.071863376 0.18980433 0.4311808 0.10456356
-0.041615058 -0.14463337 0.21113724 0.31803596 -0.16573504 -0.17684619 0.19292444 0.24651822
0.13789967 -0.068777375 -0.12963566 0.18663311 0.20049544 -0.04829985 0.17068733 -0.8032029
-0.04902127 0.06708164 0.104842044 0.36864233 -0.20180546 -0.12222845 -0.31278297 -0.09323639
0.108881995 -0.01691775 -0.1682793 -0.036201935 -0.2067808 0.47717068 -0.24498925 0.11691624
-0.0018890552 -0.05436398 -0.14610752 0.15402207 -0.20852642 0.028575175 -0.12256041 -0.0359959
-0.13526952 0.030466238 -0.077771366 -0.051957447 -0.18853648 -0.1427882 -0.31601584 0.16843435
0.15188341 -0.05109891 0.0066703423 -0.031267386 0.19148175 -0.18182456 -0.08559054 -0.13002329
0.00543796 0.38656056 -0.12572154 -0.28791276 -0.13803495 -0.35511553 0.08770341 -0.111423574
0.0664188 -0.041260723 0.1271674 0.20083277 -0.07755572 0.012615684 0.5984107 -0.30064207
0.06829982 -0.13172442 -0.09143427 -0.0018125151 0.23846602 0.32620063 -0.1535924 0.008226885
-0.19319129 0.19400516 -0.22653803 -0.196154 0.26842368 -0.23582149 -0.06625138 0.027684424
-0.060527053 -0.20471095 -0.03971772 0.11306812 0.23519944 0.34176463 0.009986984 0.08657625
0.03260807 0.38238594 0.14028904 0.14338812 -0.1749838 -1.4838145 -0.38525108 -0.38657382
0.2662794 0.09610468 -1.0251323 -0.08599251 -0.20053895 -0.15026687 0.13134876 -0.013822871
-0.33035278 0.20333849 -0.2592088 -0.055089127 -0.24867019 0.41259378 0.00305147 0.026492765
-0.35677108 0.19332026 -0.38461992 0.37428635 0.2650227 0.050033607 0.6055821 0.12199116
-0.16074714 0.08661686 0.0130913 0.060432542 -0.06393738 -0.11031475 0.10487978 -0.60373217
-0.6717002 0.012558825 -0.08502947 0.31504446 0.27011278 0.14965092 0.23850769 -0.04573506
-0.23546112 0.124029405 -0.093294166 0.444491 -0.23851678 -0.09494553 -0.20250128 0.041759603
0.061561503 0.013310498 -0.18683107 -0.29598042 0.07285764 0.517182 0.019105105 0.2774787
0.15670998 0.04078567 -0.23902555 -0.052063894 -0.82880145 -0.3953244 -0.08059626 0.4572283
0.032822583 -0.06484344 -0.32472372 -0.2637466 -0.16524947 0.117851526 -0.14236055 0.025961371
-0.019323118 0.25530955 -0.14684962 -0.09051531 0.6107024 -0.00046079652 0.047375236 -0.1151722
00000000: 7b38 43bd 5dd9 90be 3caf 473e cc19 843d
00000010: 2dbe 16be c9ad ecbe fa33 13bd 27a0 ca3d
00000020: 3598 b53d da8a d53c cc01 73bc 3450 ab3e
00000030: 909f 323e d757 113c dcd2 7e3e 8751 5f3e
00000040: 961a 21bd 55a4 173d d330 5f3e 2c50 8bbe
00000050: 33de 20be a627 343c 4b53 a4bd a2df d43d
00000060: 8c8f 54be a76d a8be 55fa a4be 0106 febc
00000070: 0c00 163e 7f22 2f3e 0d68 263c b404 113e
00000080: a7fa 4f3e d9b5 d43e 9b4c b6bd aa35 31be
00000090: 21f9 bf3d 8857 423e b460 e63c 76f5 b9bd
000000a0: ef33 a0be 8656 513e 414c 36bd 7a68 02be
000000b0: 5bdd 373e 7682 1dbe 328c bebd e3b7 62be
000000c0: ddb3 15be d0ac bc3e 6581 c9be f848 123e
000000d0: cd8c 05bd 56f8 14bd ca8c cabe 69a5 903d
000000e0: 32f3 dbbe dbe7 54be aa72 92be 4234 233e
000000f0: 1e88 a1be 84a5 49bb 43b3 da3d f49f 2bbe
00000100: 5798 ffbd 41e3 b7bd 695e cdbc 0171 0f3e
00000110: 1b2d 93bd 115c 423e bbc3 dc3e 6b25 d63d
00000120: 8d74 2abd c51a 14be 5c34 583e 9cd5 a23e
00000130: 72b6 29be 2b17 35be fc8d 453e 466f 7c3e
00000140: 9235 0d3e 27db 8cbd 36bf 04be c01c 3f3e
00000150: ad4e 4d3e 10d6 45bd a9c8 2e3e b59e 4dbf
00000160: 87ca 48bd 1962 893d 6db7 d63d b0be bc3e
00000170: 17a6 4ebe e952 fabd 1725 a0be b8f2 bebd
00000180: 86fd de3d 1897 8abc 6951 2cbe 7b48 14bd
00000190: 59be 53be b74f f43e 76de 7abe c871 ef3d
000001a0: 2d9a f7ba c4ac 5ebd 369d 15be f6b7 1d3e
000001b0: f387 55be 7c16 ea3c f400 fbbd 7070 13bd
000001c0: 1884 0abe 5594 f93c 9846 9fbd 55d1 54bd
000001d0: b50f 41be 1237 12be d4cc a1be 0e7a 2c3e
000001e0: 5387 1b3e 174d 51bd e392 da3b 3b12 00bd
000001f0: cb13 443e 3830 3abe 184a afbd d324 05be
00000200: ea30 b23b 44eb c53e 26bd 00be 4d69 93be
00000210: 0959 0dbe b4d1 b5be d89d b33d 0b32 e4bd
00000220: 9406 883d 0101 29bd 2c38 023e 1ba7 4d3e
00000230: 89d5 9ebd 04b2 4e3c 7231 193f c2ed 99be
00000240: c7e0 8b3d c4e2 06be e441 bbbd ea91 edba
00000250: 7030 743e c503 a73e 5347 1dbe 0fca 063c
00000260: f0d3 45be 4aa9 463e 96f9 67be 98dc 48be
00000270: d46e 893e 307b 71be ceae 87bd 72ca e23c
00000280: 37eb 77bd bf9f 51be 0caf 22bd 4290 e73d
00000290: 1fd8 703e c6fb ae3e 72a0 233c e44e b13d
000002a0: 0a90 053d 17c8 c33e eea7 0f3e 56d4 123e
000002b0: f42e 33be a2ed bdbf a13f c5be 01ed c5be
000002c0: c655 883e 88d2 c43d 8937 83bf d71c b0bd
000002d0: 155a 4dbe 8fdf 19be 4a80 063e 5379 62bc
000002e0: 0024 a9be f737 503e 04b7 84be 23a5 61bd
000002f0: 66a3 7ebe 7e3f d33e 2cfb 473b 5b07 d93c
00000300: b3aa b6be bff5 453e e7ec c4be 76a2 bf3e
00000310: 0eb1 873e 0af0 4c3d 6e07 1b3f 80d6 f93d
00000320: e69a 24be 2e64 b13d e47c 563c 1d88 773d
00000330: 9af1 82bd b3ec e1bd 36cb d63d 318e 1abf
00000340: 8bf4 2bbf 88c3 4d3c ee23 aebd 824d a13e
00000350: 394c 8a3e 173e 193e 5c3b 743e b054 3bbd
00000360: b81c 71be 2103 fe3d 0311 bfbd 5394 e33e
00000370: be3d 74be cd72 c2bd 7f5c 4fbe 1e0c 2b3d
00000380: ea27 7c3d 4614 5a3c a550 3fbe bf8a 97be
00000390: 6336 953d 0a66 043f 4f82 9c3c b011 8e3e
000003a0: 9578 203e e00e 273d 1dc3 74be f340 55bd
000003b0: 552c 54bf f667 cabe a70f a5bd d419 ea3e
000003c0: f970 063d a3cc 84bd 3042 a6be cb09 87be
000003d0: 2837 29be 245c f13d f7c6 11be f1ac d43c
000003e0: 844b 9ebc efb7 823e bf5f 16be 1760 b9bd
000003f0: fe56 1c3f 1097 f1b9 890c 423d 67df ebbd

sequential/dense_4/MatMul f4 [6, 128]
-0.029732956 -0.15596178 0.17019674 0.2009946 0.665422 0.2056951 0.10790355 -0.6280208
0.3644599 -0.45383507 0.08530303 -0.2585676 0.023341289 0.14196093 0.03845468 0.18525907
0.048234466 -1.2754711 0.076303534 -0.11420443 -0.5607464 0.14358278 0.08878654 -0.03012627
0.049308915 -0.23089935 0.13819128 -0.055947166 -0.10973229 0.070879005 -0.17273 0.02883898
-0.12657385 0.09739656 0.11935646 0.6462608 -0.015829451 0.32239923 -0.35034016 0.07535915
-0.47766018 0.3095719 0.18839891 -0.06702484 0.058735352 0.2249877 0.04765659 -0.9280941
-0.23293239 0.09101495 0.15851292 0.034252778 -0.11780658 -0.09255717 -0.46972522 0.15649435
0.08570394 -0.19490905 0.212496 -0.0350957 0.10132585 0.29144996 0.27194098 -0.023816882
-0.14267671 0.028070582 -0.0016480008 0.06319884 -0.17436844 -0.6927417 0.042341698 0.22284333
0.25165302 0.18530113 -0.17405689 0.12906374 0.20891903 -0.12202645 -0.50035965 0.116118036
0.05556864 -0.10318707 -0.16756845 -0.4102598 0.36701313 0.11794434 0.21706252 0.05161138
0.17258763 -0.13496576 0.034549735 0.04774487 -0.04774865 -0.04320517 -0.98190546 0.540243
-0.5357671 -0.02180063 -0.46276888 -0.22495241 0.13032727 0.075144455 -0.52272123 0.032342624
0.29144356 -0.6491006 0.2439139 0.012608102 -0.009595573 -0.071370386 -0.06573627 0.09024182
-0.6431177 0.066262394 -0.25463414 0.017771529 -0.28106314 0.09970855 -0.14907268 0.19565384
0.13117783 -0.3484665 -0.7544429 -0.29277423 -0.24548651 -0.024947284 -0.3357629 0.46166998
0.12692988 0.033401944 0.097272545 0.59544075 0.053543348 -0.8138436 0.23677848 -0.00033647087
-0.39560118 0.37624106 -0.1526086 0.018958736 0.23387493 0.016125811 0.13319592 -0.112291716
0.11976577 0.1947113 0.27102658 0.052480824 0.22355132 -0.016922874 0.14937253 -0.27694437
0.17096546 -0.1336266 0.051403046 0.0271478 -0.36442155 -0.07077546 -0.13870294 0.17068867
-0.09681551 0.099786095 -0.27824152 -0.14607672 0.093209855 0.123801656 0.14854717 0.20055002
-0.038631175 0.1759434 -0.08097321 0.24887192 -0.6307384 -0.42442688 0.23108387 -0.07120243
-0.21284242 0.029688198 0.0002637453 -0.09758452 0.31117022 0.09026677 0.045413475 0.27548712
0.11468931 0.039902728 -0.40564826 -0.08195977 -0.103678115 -0.8414663 -0.26839375 0.15421194
-0.07638835 0.17833091 -0.031944532 -0.25789705 0.093731776 -0.16903806 0.15811586 -0.123794645
-1.2492589 0.08304023 -0.07895311 -0.3717851 0.37337533 0.15419063 0.16354358 0.015318516
-1.1375448 0.05859238 -0.11886008 -0.01296883 -0.4441714 0.116562724 0.23264146 0.74743366
0.172969 -0.0022016377 -0.13354197 -0.28730896 -0.7803621 0.18299527 -0.076281354 -0.039898586
0.21504982 -0.2190055 0.107168525 0.33275518 -0.9179321 0.090038665 0.2884714 -0.22160782
-0.080715105 0.117863946 0.3140536 0.18274198 -0.08545281 0.4930801 0.21361935 0.14083579
-0.0006615645 -0.19476844 0.34526277 0.035705954 -0.023190826 0.12603198 0.124547705 -0.9310614
0.0011226016 0.09042005 0.08551892 0.01658741 0.39017954 -0.12980524 -0.5699592 -0.18129249
00000000: 8792 f3bc 72b4 1fbe 0e48 2e3e 87d1 4d3e
00000010: 1959 2a3f bca1 523e 89fc dc3d f9c5 20bf
00000020: 7d9a ba3e 125d e8be 5bb3 ae3d f962 84be
00000030: 3b36 bf3c 355e 113e a882 1d3d 8eb4 3d3e
00000040: 8191 453d a342 a3bf 0745 9c3d 03e4 e9bd
00000050: 138d 0fbf 5d07 133e b8d5 b53d 5ecb f6bc
00000060: 25f8 493d e170 6cbe 0482 0d3e db28 65bd
00000070: 53bb e0bd 0329 913d 22e0 30be b93f ec3c
00000080: 939c 01be d977 c73d 2971 f43d 5971 253f
00000090: c4ac 81bc 8311 a53e c95f b3be e655 9a3d
000000a0: e08f f4be 3580 9e3e a5eb 403e 5244 89bd
000000b0: 7b94 703d 2d63 663e 8e33 433d 9397 6dbf
000000c0: d485 6ebe 0c66 ba3d 3651 223e a44c 0c3d
000000d0: 9444 f1bd 9d8e bdbd d37f f0be 0e40 203e
000000e0: 8c85 af3d 3d96 47be 8d98 593e 82c0 0fbd
000000f0: ed83 cf3d ee38 953e d93b 8b3e 9f1b c3bc
00000100: d819 12be 47f4 e53c bb01 d8ba 656e 813d
00000110: a48d 32be 8557 31bf 7d6e 2d3d 0b31 643e
00000120: aad8 803e 94bf 3d3e f83b 32be 4929 043e
00000130: dfee 553e 01e9 f9bd 9217 00bf 4bcf ed3d
00000140: f19b 633d be53 d3bd 1097 2bbe 930d d2be
00000150: 25e9 bb3e cd8c f13d a345 5e3e 7466 533d
00000160: d0ba 303e 7734 0abe 0684 0d3d 2090 433d
00000170: 1794 43bd e8f7 30bd 285e 7bbf 5e4d 0a3f
00000180: 0828 09bf 3c97 b2bc 0bf0 ecbe ed59 66be
00000190: 8374 053e 56e5 993d 0fd1 05bf b379 043d
000001a0: 1738 953e 752b 26bf 91c4 793e 3692 4e3c
000001b0: c036 1dbc a32a 92bd bda0 86bd b4d0 b83d
000001c0: 5da3 24bf 94b4 873d 685f 82be 9995 913c
000001d0: 82e7 8fbe ff33 cc3d 82a6 18be 7b59 483e
000001e0: 7b53 063e 336a b2be 2b23 41bf 81e6 95be
000001f0: d160 7bbe 3f5e ccbc 1de9 abbe 0260 ec3e
00000200: e8f9 013e 7ad0 083d d436 c73d ce6e 183f
00000210: 4550 5b3d 0e58 50bf 0f76 723e 5b68 b0b9
00000220: 3d8c cabe aba2 c03e 6e45 1cbe 5a4f 9b3c
00000230: e97c 6f3e 471a 843c 8364 083e 33f9 e5bd
00000240: c247 f53d 6662 473e ffc3 8a3e 22f6 563d
00000250: a3ea 643e d7a1 8abc 1df5 183e a7cb 8dbe
00000260: 9211 2f3e 69d5 08be 008c 523d 1065 de3c
00000270: 7695 babe b9f2 90bd 2508 0ebe 03c9 2e3e
00000280: 3647 c6bd a75c cc3d ac75 8ebe 2395 15be
00000290: cfe4 be3d b98b fd3d c01c 183e fc5c 4d3e
000002a0: b93b 1ebd 822a 343e 48d5 a5bd 48d8 7e3e
000002b0: 1278 21bf 7b4e d9be 40a1 6c3e 94d2 91bd
000002c0: 5df3 59be aa34 f33c 4c47 8a39 65da c7bd
000002d0: b451 9f3e c9dd b83d 7b03 3a3d a60c 8d3e
000002e0: 3be2 ea3d 0b71 233d 21b1 cfbe 86da a7bd
000002f0: 3155 d4bd 566a 57bf e86a 89be bce9 1d3e
00000300: 7f71 9cbd 619c 363e 45d8 02bd 150b 84be
00000310: 72f6 bf3d 5018 2dbe 20e9 213e 0c88 fdbd
00000320: b7e7 9fbf ff10 aa3d 2bb2 a1bd 9e5a bebe
00000330: 0d2b bf3e 26e4 1d3e f877 273e 83fa 7a3c
00000340: 119b 91bf 90fe 6f3d ea6c f3bd 377b 54bc
00000350: 6f6a e3be 70b8 ee3d 9039 6e3e d057 3f3f
00000360: c91e 313e 5a49 10bb 3abf 08be 291a 93be
00000370: d0c5 47bf 1d63 3b3e 6639 9cbd b36c 23bd
00000380: 0536 5c3e fa42 60be 2c7b db3d e35e aa3e
00000390: 99fd 6abf 3166 b83d 86b2 933e 29ed 62be
000003a0: f64d a5bd a762 f13d a2cb a03e b720 3b3e
000003b0: e201 afbd ff74 fc3e 08bf 5a3e 4237 103e
000003c0: d86c 2dba 6171 47be 48c6 b03e 6840 123d
000003d0: b0fa bdbc 870e 013e de12 ff3d 0a5a 6ebf
000003e0: 4224 933a 262e b93d 8b24 af3d 52e2 873c
000003f0: 9dc5 c73e aaeb 04be d9e8 11bf bda4 39be
